mlp_wacsf_v1/weights.pth (torch, 856236 bytes, 10 tensors)

dense_layers.0.0.weight f4 [512, 49]
0	0x3d8bfa84	0.068348914
1	0x3ddaf2cd	0.10690842
2	0x3bdf73de	0.0068192324
3	0xbc1fa19d	-0.009743121
4	0xbd5a9263	-0.05336226
5	0xbd02227b	-0.031771164
6	0xbd734954	-0.059396103
7	0x3dce06c6	0.10059886
8	0xbd57010a	-0.052491225
9	0xbcdcef02	-0.026969437
10	0xbd8a7895	-0.067612804
11	0x3db7728d	0.08957396
12	0xbdbbfc11	-0.09178937
13	0xbdc7f67f	-0.09763812
14	0x3db6b4f9	0.089212365
15	0x3dd2eb7d	0.10298822
16	0x3dac4804	0.084121734
17	0x3dc52479	0.09626097
18	0xbca6f47b	-0.02038025
19	0x3c3b0bf1	0.011416421
20	0xbd8de7fe	-0.069290146
21	0x3c92f673	0.017939782
22	0xbd8693a4	-0.06571129
23	0xbd4975b9	-0.049184535
24	0x3b4cf5a2	0.0031274338
25	0x3cc69e82	0.024245504
26	0x3d3f5af4	0.0467176
27	0x3dbc4298	0.09192389
28	0x3caec6df	0.021335064
29	0x3d87ae65	0.0662506
30	0xbdac7008	-0.08419806
31	0x3d95d9df	0.07316946
32	0xbcdfd824	-0.027324744
33	0xbbd300a0	-0.0064392835
34	0x3c87c404	0.01657296
35	0xbc31e0f2	-0.010856854
36	0xbca17f26	-0.01971395
37	0xbd9ad25a	-0.075596526
38	0xbc21885a	-0.009859169
39	0xbd944844	-0.07240346
40	0xbdab9d43	-0.08379605
41	0xbd8a3ef2	-0.06750287
42	0xbc4d0f6d	-0.012515885
43	0xbdaee0fc	-0.08539006
44	0xbd824314	-0.063604504
45	0x3ce9bec7	0.028533353
46	0xbdc31363	-0.09525182
47	0xbdc1b9cc	-0.09459266
48	0xbd7ad7a2	-0.0612408
49	0xbd70960c	-0.058736846
50	0xbbaf0e58	-0.005342286
51	0x3dcd5279	0.10025496
52	0x3daa03d4	0.083015114
53	0x3cf43d2b	0.029814323
54	0xbc6efeca	-0.014587114
55	0xbd91df8f	-0.071227185
56	0x3cf5409f	0.02993804
57	0xbdcf2642	-0.10114719
58	0xbdb44446	-0.088020846
59	0x3d92e723	0.07172992
60	0xbdafe86e	-0.08589254
61	0x3d17c595	0.037053663
62	0xbda37127	-0.079805665
63	0xbdafed11	-0.08590139
64	0x3c8ec1ec	0.017426454
65	0x3d3ccce9	0.046093855
66	0x3b0d7486	0.0021584346
67	0xbd2ff0df	-0.042954322
68	0x3d77172a	0.060324825
69	0x3d8d29fc	0.068927735
70	0xbdd2833a	-0.10278936
71	0xbd5c34ba	-0.05376122
72	0xbd8a7325	-0.06760243
73	0xbd314e9b	-0.043287855
74	0x3d791c8b	0.060818236
75	0xbc01bdcc	-0.007918786
76	0xbd754cf2	-0.059887834
77	0x3c1299ef	0.008947833
78	0xbdcb0773	-0.0991353
79	0x3d216f13	0.03941257
80	0xbb6faa10	-0.003656987
81	0xbd190d4e	-0.037366204
82	0xbd0cf309	-0.034411464
83	0xbcb64cdc	-0.022253446
84	0x3d82f6f3	0.06394758
85	0x3dba6546	0.091013476
86	0xbdd1a864	-0.10237196
87	0xbd2f8ddd	-0.0428599
88	0xbd817fda	-0.06323214
89	0x3dc1eb13	0.09468665
90	0x3d94c37a	0.07263847
91	0x3d3aa843	0.045570623
92	0x3a35e4ed	0.00069387147
93	0x3d071999	0.032983396
94	0x3cb3bceb	0.021940669
95	0xbd95b871	-0.0731057
96	0xbd94627e	-0.072453484
97	0x3db48fac	0.08816466
98	0x3dacc059	0.08435125
99	0xbdb968d1	-0.09053195
100	0x3ca5d3ac	0.020242535
101	0xbdcb9022	-0.099396005
102	0x3dcfb290	0.1014148
103	0x3d7c4d4e	0.06159716
104	0xbdaedec4	-0.08538583
105	0xbd1843ec	-0.03717415
106	0xbdb1f0da	-0.08688517
107	0x3da430de	0.08017133
108	0x3d14bf4e	0.036315255
109	0xbd8c4912	-0.068498746
110	0xbdbcb625	-0.09214429
111	0xbda6a1d1	-0.08136333
112	0xbda0a6b3	-0.07844295
113	0xbc978641	-0.018496634
114	0xbd43f0de	-0.04783713
115	0xbc83caf4	-0.016087987
116	0xbc761761	-0.015020222
117	0x3cc0967d	0.023509258
118	0x3d02c178	0.031922787
119	0x3cbdeb1a	0.023183394
120	0xbdb9bd86	-0.09069352
121	0x3d315da4	0.043302193
122	0xbdb0735a	-0.086157516
123	0x3d8a47ca	0.06751974
124	0x3da73312	0.08164038
125	0x3dbe2067	0.09283524
126	0x3daaac8f	0.08333694
127	0x3d641249	0.0556815
128	0xbdb3aca9	-0.08773167
129	0xbd617d89	-0.05505136
130	0xbd1035f4	-0.035207704
131	0xbd2f2e4a	-0.042768754
132	0xbd388f3b	-0.04505847
133	0x3cd573a9	0.026056128
134	0x3cc9df6f	0.024642674
135	0xbd4285a7	-0.047490742
136	0xbd7f8cd6	-0.06239017
137	0x3d2dc2ad	0.042421985
138	0xbdc20bf6	-0.094749376
139	0x3db8ee99	0.09029884
140	0xbdc58264	-0.09644011
141	0xbdbfeb87	-0.09371095
142	0x3d120f50	0.035659134
143	0x3d4162a8	0.047213227
144	0x3d1b1019	0.03785715
145	0xbcaa8fe2	-0.020820562
146	0xbcdc5593	-0.026896274
147	0x3da2d3dd	0.07950566
148	0x3c83f1fe	0.016106602
149	0xbd5fb89b	-0.054619413
150	0xbda2ef89	-0.07955844
151	0x3dbb8fc5	0.09158281
152	0x3d823537	0.06357806
153	0x3d057385	0.03258087
154	0x3cef8430	0.029237837
155	0xbdd5772d	-0.104231216
156	0x3dae7bc7	0.085197024
157	0x3daaaad9	0.08333368
158	0xbd836e3c	-0.0641751
159	0x3d2c1e74	0.04202123
160	0xbd99a967	-0.07503014
161	0x3d8233b7	0.0635752
162	0x3d44351e	0.04790222
163	0x3dc236ab	0.09483083
164	0x3cc22cad	0.023702944
165	0xbb8f9fe4	-0.004383074
166	0x3d9a221d	0.07526038
167	0x3d4ab076	0.049484693
168	0xbd6e0787	-0.058112647
169	0xbd9a0043	-0.07519581
170	0xbd8a5d3e	-0.06756066
171	0x3dc895cd	0.09794197
172	0x3c6eeeaa	0.014583269
173	0x3d83e6f6	0.06440537
174	0x3c8957da	0.016765524
175	0x3cb33551	0.02187601
176	0xbd2c0839	-0.04200003
177	0xbc39e293	-0.011345523
178	0x3c6160c1	0.013755978
179	0xbda619e4	-0.08110407
180	0xbb525416	-0.0032093576
181	0xbdce94e8	-0.10086995
182	0x3d46faef	0.048579153
183	0xbdaa3d8a	-0.08312519
184	0x3d59043f	0.052982565
185	0xbb7b79d2	-0.003837217
186	0x3ce6a684	0.028155573
187	0xbd19c2d9	-0.037539337
188	0xbdabceee	-0.08389078
189	0x3d9838b5	0.07432691
190	0x3d9cf0e8	0.07663137
191	0x3d0e0c5c	0.034679756
192	0xbd8e61f0	-0.06952274
193	0x3d84e02e	0.064880714
194	0xbd3c5025	-0.04597487
195	0x3d71af0b	0.059004825
196	0x3d90930c	0.07059297
197	0xbda60223	-0.08105876
198	0x3d428373	0.04748864
199	0xbda6fca7	-0.08153658
200	0xbd329825	-0.043602128
201	0x3db12500	0.08649635
202	0x3cca9692	0.02473
203	0x3d05e127	0.032685425
204	0x3dac62de	0.08417295
205	0xbbe8d4e6	-0.0071054576
206	0x3d9579ed	0.07298646
207	0x3c8ed45d	0.017435247
208	0x3cebc355	0.028779665
209	0x3c0ed68a	0.008718142
210	0xbd0fd1d0	-0.035112202
211	0xbd57c7fc	-0.052680954
212	0x3cc75a16	0.024334949
213	0x3d83717c	0.0641813
214	0xbdd181a1	-0.10229803
215	0x3da5d9f4	0.08098212
216	0x3db23361	0.08701206
217	0xbcfff55c	-0.031244926
218	0xbda95f08	-0.08270079
219	0xbdb495e0	-0.08817649
220	0x3ce1f37f	0.027581928
221	0x3d3071c6	0.043077253
222	0xbc9d24d2	-0.019182596
223	0x3ccfc6bc	0.025363319
224	0x3da21b23	0.07915332
225	0xbd30b095	-0.04313715
226	0xbcd7cd9d	-0.026343161
227	0x3b900f59	0.004396361
228	0xbcef9b05	-0.029248724
229	0x3d20106b	0.039078157
230	0xbc1c19ba	-0.009527618
231	0x3c72eb28	0.014826573
232	0xbd1ed5f4	-0.03877826
233	0x3abfdae6	0.001463738
234	0x3d41bb7f	0.04729795
235	0xbcb46848	-0.022022381
236	0x3c04ed78	0.008113258
237	0x3d9c1d1b	0.07622739
238	0x3d502c04	0.050823227
239	0x3cce912d	0.02521571
240	0x3d35842b	0.0443155
241	0x3d6185b3	0.055059146
242	0x3d1b21f6	0.037874185
243	0xbda419d7	-0.08012741
244	0x3cf0b7b1	0.029384466
245	0xbdb90e06	-0.09035878
246	0xbd1c746a	-0.03819696
247	0xbd9cf963	-0.07664754
248	0xbdaa0a5f	-0.083027594
249	0x3d7dd93e	0.061974756
250	0xbd69e67f	-0.057104584
251	0x3c95e7e0	0.018299043
252	0x3d6c02d8	0.0576199
253	0x3c941d0e	0.01808026
254	0xbda669c3	-0.08125641
255	0xbd538fd6	-0.051650845

dense_layers.0.0.bias f4 [512]
0	0x3afe78f6	0.0019414711
1	0x38f67f15	0.00011753865
2	0x39b2c7fb	0.00034099803
3	0xbb39998a	-0.0028320276
4	0xbaa13581	-0.0012299271
5	0xb8fe031a	-0.000121122415
6	0xb9bd4e4c	-0.00036107225
7	0x3a912d68	0.0011076154
8	0xbaf0f8ab	-0.0018384656
9	0xba9d13fd	-0.0011984106
10	0xbb2d3adf	-0.0026432795
11	0xbb4af3b8	-0.0030968022
12	0xb99fb6b2	-0.00030462962
13	0xbabcdf56	-0.0014409821
14	0xbb3cb6cf	-0.0028795486
15	0xbaab6a13	-0.0013077877
16	0x397f4d55	0.00024347503
17	0xbb0ef7f0	-0.0021815263
18	0xbab64bf4	-0.0013908134
19	0x3aca3ff3	0.0015430435
20	0x3a4c3c48	0.0007790965
21	0x3aa052ca	0.0012231704
22	0xb7966059	-1.7926259e-05
23	0x3a468759	0.0007573269
24	0xba18a406	-0.0005822781
25	0x3a26ab98	0.0006357967
26	0xb96d8fef	-0.00022655701
27	0xbb32c357	-0.0027277076
28	0xba7e0e1c	-0.00096914335
29	0xb8ddbeed	-0.00010573664
30	0x39956a3d	0.00028498648
31	0xb9e20735	-0.0004311145
32	0xbb9a0bcb	-0.004701113
33	0xbb35c95e	-0.0027738432
34	0xbb5e9cd8	-0.0033967998
35	0xba48ac8d	-0.00076551066
36	0xba5247d2	-0.00080215663
37	0x3b4b9737	0.0031065473
38	0x3aa949cf	0.0012915673
39	0xba6605a7	-0.0008774646
40	0xbb02ccad	-0.0019958422
41	0x38fd150c	0.000120679004
42	0x3a140d55	0.00056477386
43	0x3a97e380	0.0011588186
44	0x3a6b3509	0.00089724414
45	0xba7bd55e	-0.00096066843
46	0x39d01f50	0.0003969618
47	0x3a87079b	0.0010301949
48	0x3ab939e0	0.0014131628
49	0x3a4c85a8	0.0007801899
50	0xbae005b9	-0.0017091549
51	0xba88b559	-0.0010430022
52	0xba9b4948	-0.0011847401
53	0xba394d82	-0.00070687395
54	0x3a9518fb	0.0011375243
55	0xbac1fdb2	-0.0014800339
56	0xbaf607e0	-0.0018770657
57	0xba37bb82	-0.0007008837
58	0x3ae037c3	0.0017106462
59	0xba56eb80	-0.00081985444
60	0xba22f8a1	-0.0006216858
61	0x39f8d13e	0.00047458144
62	0xba9a4615	-0.0011770154
63	0xba6966ee	-0.00089035823
64	0xbaa4f1d3	-0.0012584276
65	0xbad1db74	-0.0016010837
66	0x3a7df57a	0.0009687763
67	0xbb46d681	-0.0030340257
68	0x3af1a28f	0.0018435287
69	0x3a9691d6	0.0011487554
70	0xba30f679	-0.00067505945
71	0xb9e72ffe	-0.0004409551
72	0x3b07226a	0.0020619878
73	0xbb76d23a	-0.0037661926
74	0x3aca2bf8	0.0015424481
75	0xbb23b805	-0.002498151
76	0xbae1e924	-0.0017235619
77	0xbaa970ba	-0.0012927272
78	0xba6ff2b0	-0.000915329
79	0x3ac3b023	0.0014929812
80	0xbb6b8b0f	-0.003594104
81	0xbb436e90	-0.002982054
82	0xbaf83c68	-0.0018938901
83	0xbae18fe5	-0.0017209022
84	0xb9de915c	-0.0004245144
85	0x3a056c0e	0.0005089649
86	0xbb8704eb	-0.0041204593
87	0x3af0e172	0.0018377735
88	0x3b97ee73	0.0046365797
89	0x3a359f24	0.0006928316
90	0x380a150e	3.2921373e-05
91	0xba41bcf1	-0.000739052
92	0x39e6d610	0.00044028508
93	0x3a63e5a4	0.0008693582
94	0xbb30bb32	-0.0026967046
95	0x3a18b371	0.00058250787
96	0xbacf3813	-0.0015809558
97	0xbb891ff2	-0.0041847164
98	0x3a5d8a87	0.0008451123
99	0x3a9b42b0	0.0011845436
100	0x383da35e	4.521326e-05
101	0x3aac9f69	0.0013170067
102	0xba543799	-0.0008095443
103	0xbb686df4	-0.0035465928
104	0xbae8b86d	-0.0017755158
105	0xba8b2f5a	-0.001061897
106	0x3a3d84aa	0.00072295463
107	0xb90dae33	-0.00013511702
108	0x39cf3500	0.00039521605
109	0xb999a824	-0.0002930771
110	0xba00d067	-0.0004913867
111	0xbb3e0066	-0.0028991937
112	0xba3458c1	-0.00068796804
113	0xba08ee27	-0.0005223476
114	0xbb4a2626	-0.0030845492
115	0xbab529de	-0.0013821681
116	0xbb00ff41	-0.0019683393
117	0xb8d1c732	-0.000100029996
118	0x39878fc6	0.00025856326
119	0xbab78cc8	-0.0014003748
120	0xbb5d16f7	-0.0033735612
121	0xbae17899	-0.0017202079
122	0xbb232b30	-0.0024897568
123	0xbb7156ad	-0.0036825344
124	0x3a081dc5	0.0005192424
125	0xb8c70716	-9.490379e-05
126	0x39be9c0f	0.00036355897
127	0x3b08d6be	0.002087995
128	0xbb7ff092	-0.0039053303
129	0xbb49b7ee	-0.0030779797
130	0xb913a644	-0.00014080951
131	0xbb8036ab	-0.003912767
132	0xbb770c9b	-0.0037696722
133	0x3b29b701	0.0025896432
134	0x397a4af1	0.00023869776
135	0x39dabec9	0.00041722346
136	0xb9c53284	-0.00037612405
137	0xba4bfabc	-0.0007781198
138	0xb73ec32f	-1.1370327e-05
139	0xbb77af76	-0.0037793792
140	0xbb4c524f	-0.003117699
141	0xba492f78	-0.0007674615
142	0xba7c3236	-0.0009620519
143	0xbb0e6401	-0.0021727087
144	0xbb71a7e5	-0.0036873755
145	0xb93c7b1a	-0.00017974936
146	0xb9da4183	-0.0004162901
147	0xba816f3b	-0.0009875068
148	0x3a2d13ed	0.00066023954
149	0xbb15b452	-0.0022843075
150	0xbae94880	-0.0017798096
151	0x3a20bc9f	0.00061316224
152	0xbab32d09	-0.0013670038
153	0x3a9303fc	0.0011216397
154	0x3a06099d	0.0005113127
155	0x3b412c98	0.0029476043
156	0x3a727529	0.00092490256
157	0xbaadccf3	-0.0013259932
158	0x393254cd	0.00017006994
159	0xb7a6ef56	-1.9900192e-05
160	0xbaf35385	-0.001856432
161	0xba696d23	-0.0008904507
162	0x398213e1	0.00024810343
163	0xbafb898c	-0.0019190772
164	0xbaa2fac1	-0.001243435
165	0xbb356ce4	-0.0027683312
166	0x3a77b909	0.00094498746
167	0x39a50aa9	0.00031479195
168	0xba5432e0	-0.0008094739
169	0x3ae346a3	0.0017339777
170	0xba494731	-0.000767815
171	0x3ac5066e	0.0015031823
172	0xb9591aee	-0.00020704765
173	0xbab89db7	-0.0014085089
174	0xbaecc1ca	-0.0018063125
175	0xbaec6761	-0.001803618
176	0xb9c9b1fd	-0.0003847032
177	0x3b07558a	0.002065035
178	0xba6fa9fa	-0.0009142455
179	0x3aa382b0	0.0012474861
180	0xbaf7a5bf	-0.0018894001
181	0xb96a0487	-0.00022317666
182	0xba62ef4e	-0.0008656875
183	0xba3c9971	-0.00071944954
184	0xbb94b00d	-0.0045375885
185	0x3a02e424	0.0004993102
186	0xb9a67631	-0.00031750047
187	0xba2d46e0	-0.00066099875
188	0xb9b0ee33	-0.00033746808
189	0xba1efe43	-0.00060651096
190	0xba8b1054	-0.0010609725
191	0xb98a47ab	-0.00026374808
192	0x39ce01b3	0.00039292648
193	0x3b58e16c	0.0033093346
194	0xba051766	-0.0005077034
195	0xba851bc5	-0.0010155371
196	0xbb623140	-0.0034514219
197	0xba159a73	-0.00057069137
198	0xb79eaff1	-1.8916997e-05
199	0xbb37dafb	-0.0028054107
200	0x3ab885b9	0.0014077938
201	0x3942f972	0.00018594207
202	0xba924057	-0.0011158091
203	0xbafa7214	-0.0019107484
204	0xbb64b434	-0.0034897448
205	0x3a223af8	0.00061885966
206	0x3a4e4a4a	0.00078693463
207	0xbb9b0c97	-0.0047317254
208	0x3959140f	0.00020702205
209	0x3b8880ef	0.0041657607
210	0x3a53cb8e	0.0008079343
211	0xba8def26	-0.0010828718
212	0xb66d5839	-3.5367104e-06
213	0x3a9369d8	0.0011246754
214	0xbb117ea6	-0.0022200732
215	0x395e0992	0.00021175135
216	0x391f275c	0.00015178084
217	0xba7a7c55	-0.000955527
218	0xba5aa6e4	-0.00083409087
219	0x3a37dac8	0.0007013497
220	0xbab349c3	-0.0013678599
221	0xba96f4cd	-0.0011517048
222	0x3aac0f8c	0.0013127192
223	0xbb1f9e26	-0.0024355738
224	0x3b515989	0.0031944236
225	0xbb2ad27e	-0.0026065405
226	0xba925dba	-0.0011166849
227	0xba442cea	-0.00074834994
228	0xb9c4fd5e	-0.00037572806
229	0xba871960	-0.0010307245
230	0x39ab3b83	0.0003266
231	0x3a86ea97	0.0010293302
232	0x3ab0201b	0.0013437303
233	0x3aa7cebb	0.0012802699
234	0x38f83ff2	0.00011837472
235	0xbb2a3829	-0.0025973415
236	0x3a5c124d	0.0008395061
237	0xba21aecd	-0.000616771
238	0xb9a2cc7c	-0.000310514
239	0xbb0d6dcb	-0.0021580334
240	0x3ad011e9	0.0015874478
241	0x3a75919b	0.0009367705
242	0x384ec38a	4.9296337e-05
243	0x3a28a357	0.0006433031
244	0xbb4d78f3	-0.003135261
245	0x3ad64fd1	0.0016350691
246	0x3b265750	0.0025381632
247	0x3a3200cf	0.00067902816
248	0xba33d056	-0.00068593526
249	0xba9be992	-0.0011895171
250	0xbaa6b967	-0.0012720049
251	0x3ab32d06	0.0013670034
252	0xbaa6e2dc	-0.0012732404
253	0xbaae55d7	-0.0013300729
254	0x3ab203ae	0.0013581419
255	0xba2d379d	-0.00066077133

dense_layers.1.0.weight f4 [256, 512]
0	0x3bf415a0	0.007448867
1	0xbd8e471c	-0.06947157
2	0xbdb8171a	-0.08988781
3	0xbd1592b1	-0.03651685
4	0x3d38167f	0.04494333
5	0xbc971fa0	-0.018447697
6	0x3d9edaf2	0.07756604
7	0xbd948a8b	-0.072529875
8	0x3d10f51e	0.035390012
9	0xbd570efe	-0.052504532
10	0xbca9a530	-0.02070865
11	0xbd2eb186	-0.04264977
12	0x3d73f588	0.05956033
13	0xbc1ca6fd	-0.0095612975
14	0xbdb3ed0d	-0.08785448
15	0x3d9b92ce	0.0759636
16	0xbbf43c0b	-0.0074534467
17	0x3d0f5a16	0.034998022
18	0xbc80d592	-0.015726838
19	0x3d538650	0.051641762
20	0xbd910ca9	-0.07082493
21	0x3d753a40	0.059870005
22	0x3cc9b155	0.024620691
23	0xbd5e87fd	-0.054328907
24	0xbcba120b	-0.022713682
25	0xbd1e71c2	-0.038682707
26	0xbda31d1e	-0.07964538
27	0x3c8a7833	0.016903019
28	0x3db588dd	0.08863995
29	0xbd0648f0	-0.032784402
30	0x3bf5d861	0.007502601
31	0x3d5ba758	0.05362639
32	0x3d26379f	0.04058039
33	0xbd871ee2	-0.06597687
34	0xbd870013	-0.06591811
35	0x3daa8929	0.083269425
36	0xbc065384	-0.008198623
37	0x3d80c8cf	0.06288301
38	0xbd35f10b	-0.04441933
39	0x3c3557cd	0.011068297
40	0xbd922730	-0.07136381
41	0xbc3a4833	-0.011369753
42	0xbb99ac1b	-0.004689706
43	0xbd87000a	-0.06591804
44	0xbca6896f	-0.020329205
45	0xbd39b408	-0.045337707
46	0x3d0afb10	0.033930838
47	0xbd413938	-0.04717371
48	0xbd02fcf1	-0.031979505
49	0x3da9d562	0.08292653
50	0xbcb02190	-0.021500379
51	0xbda75917	-0.081712894
52	0xbd34fe43	-0.044187795
53	0x3d0caed5	0.03434642
54	0xbcd79501	-0.026316168
55	0x3d9fd73f	0.07804727
56	0x3d73d2cc	0.059527203
57	0x3d8ca4aa	0.06867345
58	0xbd9785a5	-0.073985375
59	0xbc3f6f2b	-0.011684219
60	0xbcd07786	-0.025447618
61	0xbd1da0ae	-0.038483314
62	0x3d595787	0.05306199
63	0xbad54d30	-0.0016273614
64	0xbd9398cd	-0.07206879
65	0x3d558dc8	0.052137166
66	0x3d77fbc1	0.060542826
67	0xbd284e6a	-0.041090406
68	0x3cb0456e	0.021517482
69	0x3cb04ccb	0.021520993
70	0x3d1222d6	0.035677753
71	0xbb58ef3c	-0.003310158
72	0x3cde596c	0.027142249
73	0x3d959f51	0.07305778
74	0x3c90768a	0.017634649
75	0xbd3c7115	-0.04600628
76	0xbd47bbf1	-0.04876322
77	0xbcb4d243	-0.022072917
78	0x3b49ff34	0.003082228
79	0x3ca49b1e	0.020093497
80	0xbd99df20	-0.07513261
81	0xbd907f50	-0.07055533
82	0xbcb3a86b	-0.021930894
83	0x3cbffc0e	0.023435619
84	0x3d9dae90	0.07699311
85	0xbcf0097b	-0.029301396
86	0x3d9fed22	0.07808901
87	0x3d99084f	0.07472288
88	0xbd516d2d	-0.05112951
89	0xbcffb113	-0.031212365
90	0xbd697f40	-0.05700612
91	0x3d57312d	0.052537132
92	0x3d0ee9ad	0.03489082
93	0xbd698782	-0.057013996
94	0x3cf28aca	0.029607195
95	0xbd0ba43d	-0.034092177
96	0xbd94550e	-0.072427854
97	0xbc9cee5c	-0.019156627
98	0xbd88f078	-0.06686491
99	0x3d83a896	0.064286396
100	0x3d3c36f1	0.045950834
101	0xbd531c27	-0.05154052
102	0xbcff63df	-0.031175552
103	0x3d97c13e	0.07409905
104	0xbd9c1a6c	-0.07622227
105	0x3cca54e9	0.024698691
106	0xbc9a88fb	-0.018864146
107	0x3d6f0790	0.05835682
108	0x3c86f1da	0.016472746
109	0x3b96d7ab	0.0046033463
110	0x3d0b969a	0.03407917
111	0xbd84c237	-0.06482356
112	0x3d899e06	0.06719594
113	0x3d3f213a	0.046662547
114	0x3c86959f	0.016428767
115	0xbd222eb2	-0.039595313
116	0x3d6ded17	0.058087435
117	0xbd53d804	-0.05171968
118	0xbda6e37a	-0.081488565
119	0xbd3ec832	-0.04657764
120	0x3d036c7a	0.032085873
121	0xbd8e5a73	-0.069508456
122	0xbd369e83	-0.044584762
123	0xbc9f712e	-0.019463148
124	0x3ce7b6e1	0.028285446
125	0xbd4511b7	-0.048112597
126	0xbd35b9d6	-0.04436668
127	0x3d899b4c	0.06719074
128	0x3b04b55f	0.0020249707
129	0x3d1e0bf4	0.03858562
130	0xbd007769	-0.03136388
131	0x3ce9a629	0.028521614
132	0xbd918d04	-0.07106975
133	0x3d17cf87	0.037063148
134	0xbda295b2	-0.07938708
135	0x3c9a60f9	0.018845068
136	0xbd23ba3f	-0.03997254
137	0x3c862b5b	0.016378095
138	0xbd35b56b	-0.044362467
139	0x3d059b1a	0.03261862
140	0xbd306ba7	-0.043071415
141	0xbd913986	-0.0709105
142	0xb9fce027	-0.00048232192
143	0xbcdab6af	-0.026698438
144	0xbd6f9c2f	-0.058498558
145	0xbc92dd08	-0.017927662
146	0xbce44879	-0.027866589
147	0x3c19c8b8	0.009386234
148	0x3bbe1e29	0.005801935
149	0x3d43f36c	0.047839567
150	0x3d66ae79	0.056318734
151	0x3cdec80d	0.027195001
152	0x3d2a841e	0.041629903
153	0xbd928d84	-0.07155898
154	0xbd14d238	-0.036333293
155	0x3d910eaa	0.07082875
156	0xbd90860d	-0.07056818
157	0xbd51f63d	-0.05126022
158	0x3d868922	0.06569125
159	0xbd3e239f	-0.04642069
160	0x3dab78a9	0.083726235
161	0x3c1e3f21	0.009658606
162	0x3d2c6171	0.042085115
163	0xbd9f87d0	-0.07789576
164	0x3d17f36a	0.037097372
165	0xbd2f07ad	-0.04273193
166	0xbd040412	-0.032230444
167	0x3aae5c70	0.0013302695
168	0x3d569583	0.05238868
169	0x3d3381b9	0.043824885
170	0xbd9c6569	-0.0763653
171	0xbd2688d4	-0.040657833
172	0xbb0e5679	-0.0021719022
173	0xbc0aff0f	-0.008483662
174	0xbda71437	-0.081581526
175	0x3d894d94	0.0670425
176	0xbc698147	-0.0142520135
177	0xbd950696	-0.07276647
178	0x3d110a3b	0.035410147
179	0xbc0bdf82	-0.008537175
180	0x3d8cd735	0.06876985
181	0x3bd29e6f	0.006427578
182	0x3d408291	0.046999518
183	0x3d9fa4f5	0.07795135
184	0x3d81a5ba	0.06330438
185	0x3d4d61b7	0.050142016
186	0xbadbf508	-0.0016781399
187	0xbd6b5c39	-0.057460997
188	0x3d08fac1	0.033442263
189	0x3d9c8db5	0.07644216
190	0xbca45ef5	-0.02006481
191	0xbbdacecd	-0.0066774846
192	0xb9fb94b8	-0.00047985255
193	0xbcf39a29	-0.029736595
194	0x3d988cad	0.07448707
195	0x3d83694c	0.06416568
196	0x3d1766b7	0.03696319
197	0xbd42f51a	-0.04759703
198	0xbd1c246f	-0.038120683
199	0xbd9dbc62	-0.07701947
200	0xbd6aa101	-0.05728245
201	0xbd25f408	-0.04051593
202	0x3cfb1ffa	0.030654896
203	0xbd29a9a4	-0.041421548
204	0xbcb7b1ac	-0.022423588
205	0x3d644333	0.05572815
206	0x3d66f0d3	0.05638201
207	0x3cc78961	0.0243575
208	0xbcc83789	-0.024440544
209	0x3d5c8914	0.053841665
210	0xbccee520	-0.02525574
211	0x3d78aee2	0.060713656
212	0x3d2b7bb7	0.04186603
213	0xbd0e3ab6	-0.03472396
214	0x3d0e9a33	0.034815025
215	0xbd6691a9	-0.056291256
216	0xbda54834	-0.08070412
217	0x3c6e7d06	0.014556175
218	0xbd4a4136	-0.049378596
219	0x3d2abc94	0.04168375
220	0x3d83f35d	0.06442902
221	0x3dbbdb6e	0.09172712
222	0x3d54b90d	0.05193429
223	0xbdb5a359	-0.08869047
224	0xbcca3bd6	-0.024686735
225	0x3d16cc29	0.036815796
226	0xbcde4f09	-0.027137296
227	0xbcb64068	-0.022247508
228	0xbdba3c7a	-0.09093566
229	0x3d110927	0.03540912
230	0x3d89b674	0.06724253
231	0x3ce28163	0.027649587
232	0x3d90a184	0.07062057
233	0xbcdd1f37	-0.026992423
234	0xbca5c38c	-0.020234846
235	0x3d34fed6	0.044188343
236	0xbcaf421f	-0.021393834
237	0x3b092302	0.0020925407
238	0x3da30bc5	0.07961229
239	0x3d2631b9	0.040574763
240	0x3c94d9e9	0.018170314
241	0xbda4ff06	-0.08056454
242	0xbd66ac54	-0.05631669
243	0x3d58f30f	0.052966174
244	0x3d4316f0	0.047629297
245	0xb90874d8	-0.00013013498
246	0x3b98ae8a	0.0046594786
247	0x3d29eee8	0.041487604
248	0x3d7b2cff	0.06132221
249	0xbccd713c	-0.025078408
250	0xbd8a880e	-0.067642316
251	0x3cd07635	0.02544699
252	0x3cc9e3fe	0.024644848
253	0x3d4a4882	0.049385555
254	0x3ca3588b	0.019939682
255	0x3d749f7d	0.059722412

dense_layers.1.0.bias f4 [256]
0	0xbb08a428	-0.0020849798
1	0xbafca313	-0.0019274674
2	0x392d5357	0.00016529612
3	0xbb3d13ba	-0.002885087
4	0x3b64d5d8	0.00349175
5	0xb99be398	-0.00029733474
6	0xb9378f55	-0.00017505635
7	0x3b3e1b71	0.0029008056
8	0xb9a382b7	-0.00031187173
9	0xbb3245d3	-0.0027202263
10	0xbb6e84ea	-0.003639514
11	0xb987157e	-0.0002576522
12	0xbaaf6274	-0.0013380782
13	0xbb0dd902	-0.002164424
14	0xbb2a87f2	-0.002602097
15	0xbaa68e85	-0.0012707269
16	0xbb25050b	-0.0025180008
17	0x3abbd312	0.0014329872
18	0x3b1bf80f	0.0023798977
19	0xbae83435	-0.0017715754
20	0xbaedddac	-0.0018147728
21	0x3938b88e	0.0001761636
22	0xbadb3aeb	-0.0016725933
23	0xbb10b589	-0.002208086
24	0xbb31d63d	-0.0027135753
25	0xba838e99	-0.0010037004
26	0xbb5068d3	-0.0031800761
27	0x3a996e29	0.0011705804
28	0x3922ea57	0.00015536822
29	0x3a934f48	0.0011238838
30	0xba56dfbc	-0.0008196791
31	0xbb55eab9	-0.0032641126
32	0xba9a8047	-0.0011787497
33	0x3b23f3bd	0.0025017106
34	0xbb1b17b4	-0.0023665251
35	0xbab21819	-0.0013587504
36	0xbaf9d094	-0.0019059354
37	0x39ce546a	0.00039354275
38	0x3a3448ee	0.00068773224
39	0xbafcd20b	-0.0019288672
40	0xba3145f4	-0.0006762438
41	0xbad43b52	-0.0016191995
42	0xbb05e72a	-0.0020431974
43	0xbab10f38	-0.0013508564
44	0x39b82c46	0.000351282
45	0xbaaf1b24	-0.0013359529
46	0xbb2af2d2	-0.0026084674
47	0x39854dd5	0.00025425726
48	0xba72f0b3	-0.00092674344
49	0xbb5b7156	-0.0033484302
50	0xbae7d6aa	-0.0017687876
51	0xba3cbfc0	-0.0007200204
52	0xb9aad6be	-0.00032584922
53	0xbaa94798	-0.0012915013
54	0xb9059d8d	-0.0001274256
55	0xbad61bc4	-0.0016335179
56	0x3a49941a	0.00076896104
57	0x3aa5b22e	0.0012641603
58	0xba8d56d9	-0.0010783329
59	0xbb83bb70	-0.004020147
60	0x39da588a	0.00041646167
61	0x3a5f467d	0.00085172785
62	0xbabddefb	-0.0014486009
63	0x3adab7bd	0.0016686838
64	0xba08ae7f	-0.000521399
65	0xbb28b386	-0.002574177
66	0xbb11d729	-0.002225349
67	0xbaf8c9c0	-0.0018981025
68	0xb9405e77	-0.00018345738
69	0xba14ccbd	-0.00056762603
70	0xbaed537d	-0.0018106546
71	0x3b23f431	0.0025017376
72	0x398ee9d9	0.0002725858
73	0xbb5f64ba	-0.0034087137
74	0xb92e4aae	-0.00016621753
75	0xbb4ce753	-0.003126581
76	0xbb06b570	-0.0020554923
77	0xbb5dae74	-0.0033825906
78	0xba97c6fa	-0.0011579685
79	0xbafe8686	-0.0019418753
80	0xba74adf4	-0.00093337824
81	0x3af2370d	0.0018479541
82	0xbade9fcc	-0.0016984879
83	0xbaea3481	-0.0017868431
84	0xba605e3c	-0.0008558964
85	0x3a3cf1b1	0.00072076457
86	0xbaa82f07	-0.0012831398
87	0xbb2e91a3	-0.00266371
88	0x3abcf19f	0.001441527
89	0xbad6d90e	-0.0016391592
90	0xba58c463	-0.000826901
91	0xba55e721	-0.0008159746
92	0x39b259bc	0.00034017663
93	0xbb19feb3	-0.002349776
94	0xba54801d	-0.00081062486
95	0xba6af7cb	-0.00089633156
96	0x38ce3b01	9.833836e-05
97	0xbb101077	-0.002198247
98	0xbb08ab37	-0.0020854005
99	0xbb2fdaa6	-0.0026833205
100	0x3ace01d7	0.0015717101
101	0xbafdbb94	-0.0019358271
102	0x3a883cd1	0.0010394101
103	0xbb0f67cb	-0.0021881934
104	0x3a40aef9	0.00073502917
105	0xba197a39	-0.00058546994
106	0x3a6f48e0	0.00091279857
107	0x3a094d71	0.0005237675
108	0xbab03031	-0.0013442097
109	0xbae82c87	-0.0017713465
110	0xbb79043a	-0.0037996904
111	0x3a29d007	0.0006477837
112	0x3a3af40f	0.00071317045
113	0xbaf5459e	-0.0018712764
114	0xba578a62	-0.000822222
115	0x3a6c7b4e	0.00090210594
116	0xba50d279	-0.0007965933
117	0xbb477493	-0.0030434474
118	0x3b1667f0	0.0022950135
119	0x3a0cc011	0.00053691963
120	0xbb091d44	-0.0020921985
121	0x3a0ba734	0.00053273444
122	0x39aa6d0f	0.00032506182
123	0x3a180e89	0.0005800506
124	0x3af23c50	0.0018481109
125	0x39b7ad33	0.00035033523
126	0x3baca506	0.0052686958
127	0x3993cae6	0.00028189196
128	0xbb0665b0	-0.0020507388
129	0x3b58d96a	0.0033088573
130	0xb9d4b624	-0.00040571496
131	0x388cbf76	6.7113826e-05
132	0x3b60c2ad	0.0034295723
133	0x39a169b7	0.00030787077
134	0xbb179b7f	-0.0023133454
135	0x3a9c933d	0.0011945736
136	0xbb0d973e	-0.002160504
137	0x3b91a745	0.004444989
138	0xbae0cb5c	-0.001715045
139	0x3aeb3b6b	0.0017946785
140	0x3b1be2e3	0.0023786358
141	0xbb739e4a	-0.0037173205
142	0x3af6f08a	0.0018839997
143	0xba3427b3	-0.0006872371
144	0xbb00cea7	-0.0019654424
145	0xba77e353	-0.0009456176
146	0xba07fe22	-0.000518771
147	0xba4abe25	-0.0007734022
148	0xb9cd9c10	-0.00039216923
149	0xba0e67f6	-0.00054323615
150	0x39165124	0.00014335342
151	0xba76f7af	-0.0009421063
152	0xbaab8041	-0.0013084487
153	0xbb9499fa	-0.004534957
154	0xba7c2e5b	-0.00096199446
155	0xbb1310c0	-0.0022440404
156	0x37d8b59d	2.5833777e-05
157	0x39826c70	0.00024876324
158	0xba7a758e	-0.000955426
159	0x3b275068	0.0025530104
160	0xb9e0000f	-0.00042724653
161	0xbb211ae6	-0.0024582683
162	0x3aae5fac	0.0013303659
163	0x3a42f5a5	0.00074371166
164	0x3a1a5514	0.00058873114
165	0x3a80ce4a	0.0009827104
166	0xbb23ef84	-0.0025014589
167	0x3991b292	0.000277896
168	0xb8dabcaa	-0.000104301915
169	0x3b890800	0.004181862
170	0xbaf6df9c	-0.0018834951
171	0xbb30f015	-0.0026998569
172	0x399b334c	0.00029602123
173	0xb9ba8475	-0.00035575373
174	0x3a0ca1a2	0.00053646613
175	0xbb06a045	-0.0020542305
176	0xbb35b7af	-0.0027727892
177	0xbb065d33	-0.0020502328
178	0xbae07932	-0.0017125963
179	0xb9fe54d6	-0.00048509863
180	0x38a64c92	7.929759e-05
181	0x38fc8254	0.00012040572
182	0xbb325897	-0.0027213448
183	0xbae3dc0c	-0.0017384305
184	0xba63375a	-0.0008667611
185	0xbb13612e	-0.0022488344
186	0xbacd31b4	-0.0015655071
187	0x3b81990b	0.0039550117
188	0x39f3cb67	0.00046500118
189	0xbab10d5b	-0.0013508009
190	0xbae327b5	-0.0017330559
191	0xbb61195e	-0.0034347395
192	0xbab2e75e	-0.0013649275
193	0xbac69ee9	-0.001515356
194	0xba90ec2f	-0.0011056716
195	0xba09cc50	-0.000525658
196	0xb78c7a70	-1.6746315e-05
197	0x38369ad9	4.3536395e-05
198	0xba5ec42b	-0.0008497859
199	0xbab219af	-0.0013587977
200	0x3911b6ac	0.00013896328
201	0x3b80525c	0.003916068
202	0xbac41e32	-0.0014962612
203	0xbaa95d7c	-0.0012921537
204	0x38a1e9af	7.720605e-05
205	0xbb32b25b	-0.0027266953
206	0xbaf179d7	-0.0018423152
207	0xba28d4c1	-0.0006440394
208	0xb9d211d7	-0.00040067613
209	0xba879efa	-0.0010347061
210	0x3771aa3e	1.4404357e-05
211	0xba6bf694	-0.00090012816
212	0xb9132137	-0.00014031386
213	0xbb279f5a	-0.0025577159
214	0xbb2c5c36	-0.002630008
215	0xb9783590	-0.00023671077
216	0xbb0bca98	-0.0021330472
217	0xba9ac157	-0.0011806887
218	0xba24249e	-0.000626156
219	0x3a0bef49	0.00053380855
220	0x39717508	0.00023027149
221	0xbb0fa682	-0.0021919315
222	0xbac9f3e0	-0.0015407763
223	0xba270113	-0.00063707045
224	0xba31c9f8	-0.000678211
225	0xbaa9d01f	-0.0012955702
226	0xba29ddfa	-0.00064799155
227	0xba92fa2c	-0.0011213473
228	0xb9bea7a7	-0.00036364535
229	0xbb52aec6	-0.003214763
230	0xb9779bcd	-0.00023613796
231	0xbb024db8	-0.001988275
232	0xba837871	-0.0010030401
233	0xbb2d8672	-0.002647784
234	0xbb9708ec	-0.004609218
235	0xbaecc137	-0.0018062954
236	0xb9202bf8	-0.00015275169
237	0xbb419eb6	-0.0029544062
238	0xba1be60b	-0.000594706
239	0x3a62369d	0.0008629354
240	0xb862ee87	-5.4104745e-05
241	0x399a715b	0.00029457625
242	0xba479f07	-0.00076149445
243	0xbaebc96c	-0.0017989106
244	0xba86bcd9	-0.001027967
245	0xbb20d818	-0.0024542864
246	0xbb04c548	-0.002025919
247	0xbb4dafdf	-0.0031385345
248	0xba5e444e	-0.0008478806
249	0xb9c6e060	-0.00037932675
250	0xbaf89dd5	-0.0018967936
251	0x3a8efe19	0.0010909467
252	0xbac65fe3	-0.0015134778
253	0xbae31225	-0.0017324133
254	0x3b45d6b2	0.0030187783
255	0xbad86c70	-0.0016511809

dense_layers.2.0.weight f4 [128, 256]
0	0x3d5d692d	0.05405538
1	0xbbd4855b	-0.006485624
2	0xbda71dab	-0.081599556
3	0x3bc74df0	0.006082289
4	0x3da74b70	0.081686854
5	0xbce888d7	-0.028385563
6	0x3dc0ac28	0.09407836
7	0x3d1d6f20	0.038436055
8	0x3d93d06f	0.0721749
9	0xbdb4a698	-0.08820838
10	0x3dc5147e	0.09623049
11	0xbd9e647c	-0.077340096
12	0xbd0d4b44	-0.034495607
13	0xbd8280ef	-0.063722484
14	0x3dd6dbf0	0.104911685
15	0xbdee62af	-0.11639916
16	0x3db6e281	0.08929921
17	0x3d7dddca	0.061979093
18	0x3c979cc1	0.018507363
19	0x3ccf5ba5	0.025312254
20	0x3d87380c	0.06602487
21	0x3dd77566	0.10520439
22	0x3d45967c	0.048239216
23	0xbde2f033	-0.110809706
24	0x3dcb53da	0.09928103
25	0x3d72bdf7	0.059263196
26	0x3d9cdc6d	0.076592304
27	0x3dc78d08	0.097436965
28	0x3cc35ffc	0.02384948
29	0xbd07aa5c	-0.03312145
30	0x3df5f072	0.12008752
31	0x3d9a50c3	0.07534935
32	0x3deda37a	0.11603446
33	0x3ce02b63	0.027364438
34	0xbcb1d740	-0.021709085
35	0xbd96a23a	-0.07355161
36	0x3d0a1cb1	0.03371877
37	0xbdaee1ea	-0.085391834
38	0xbdc32faf	-0.09530579
39	0x3d436c35	0.047710616
40	0x3df3edc8	0.119105875
41	0x3dee52bc	0.11636874
42	0x3d5c92d7	0.053850975
43	0xbdcbb58e	-0.09946738
44	0x3dcfcb90	0.10146248
45	0xbdbf4233	-0.093387984
46	0xbd86d52c	-0.06583628
47	0xbd9c07af	-0.07618653
48	0xbdea0e3c	-0.11428496
49	0xbdf90470	-0.121590495
50	0xbbc5da93	-0.006038019
51	0x3da4b596	0.08042447
52	0x3d99d350	0.07511008
53	0xbdbb869e	-0.091565356
54	0x3da6e8b7	0.081498556
55	0x3a9ccc4d	0.0011962742
56	0xbc43e53c	-0.011956509
57	0x3dc6efbe	0.09713696
58	0xbd706fb0	-0.058700264
59	0x3dc3df90	0.095641255
60	0xbdd8303a	-0.105560735
61	0x3dad9922	0.084764734
62	0x3d7ef522	0.062245496
63	0xbd2dc9a5	-0.04242863
64	0xbdf33833	-0.118759535
65	0x3d7d2a73	0.06180806
66	0x3dce6827	0.10078459
67	0x3dbbdefc	0.0917339
68	0xbdda2bf0	-0.10652912
69	0x3d37d0d1	0.044876877
70	0x3dc9b97a	0.0984983
71	0xbd9deecc	-0.077115625
72	0xbdb181c6	-0.086673304
73	0x3d1bc7f5	0.03803249
74	0xbda7d9c6	-0.08195834
75	0x3d97c6ab	0.0741094
76	0x3d9d447c	0.07679078
77	0x3d7b6b03	0.06138135
78	0xbd056085	-0.03256275
79	0x3de8fbda	0.11376162
80	0x3d8f52e2	0.069982305
81	0x3df02c11	0.11727155
82	0x3dbe318b	0.09286793
83	0x3daefc61	0.08544231
84	0x3cf74997	0.030186458
85	0xbdb38a88	-0.08766657
86	0xbddc4763	-0.107558034
87	0xbdab26de	-0.08357023
88	0x3d95f52a	0.07322152
89	0x3ab4e072	0.00137998
90	0x3dd41638	0.103558004
91	0x3ddc0021	0.10742212
92	0xbd7667f6	-0.06015774
93	0xbd3b0961	-0.04566324
94	0x3d8eeb57	0.06978481
95	0xbdbb1475	-0.09134761
96	0xbc5b5979	-0.013388031
97	0xbd5a3c36	-0.053280078
98	0xbde69b5d	-0.11260102
99	0xbd694d03	-0.05695821
100	0x3d3311a5	0.043718
101	0x3dccc437	0.099983625
102	0xbd99e8e3	-0.07515123
103	0xbd1b7e09	-0.037961993
104	0xbda88c3b	-0.08229872
105	0xbdb45138	-0.08804554
106	0xbd74a1b6	-0.059724532
107	0xbd9e8d43	-0.07741787
108	0xbd6e3eb1	-0.058165256
109	0xbde6e7da	-0.11274691
110	0x3d6ccd87	0.057813194
111	0xbda7bd22	-0.08190371
112	0x3d73b890	0.059502184
113	0xbcb20b14	-0.021733798
114	0x3dd73bee	0.105094776
115	0x3c939600	0.018015862
116	0x3d7b07dd	0.061286796
117	0xbdf8138d	-0.12113104
118	0xbc979d5d	-0.018507654
119	0xbddcb081	-0.10775853
120	0xbd8536da	-0.06504603
121	0xbddae6f2	-0.106885806
122	0x3dfec2af	0.12439477
123	0x3dded4c1	0.10880423
124	0xbdf92884	-0.12165931
125	0xbdf850fc	-0.121248215
126	0xbd6564e0	-0.056004405
127	0x3d409795	0.04701956
128	0xbc03e876	-0.0080510285
129	0x3ca185f8	0.019717202
130	0x3de08a52	0.109638825
131	0x3d8fffa0	0.070311785
132	0x3ddda4fb	0.10822483
133	0xbd2a29e3	-0.041543853
134	0x3da085de	0.07838033
135	0x3da0773f	0.078352444
136	0xbd4bbf67	-0.049743082
137	0xbc0a5dab	-0.008445184
138	0x3ddc5a95	0.10759465
139	0xbd37fdb2	-0.044919677
140	0xbd44e00f	-0.04806524
141	0xbdb91531	-0.09037245
142	0xbd9499f4	-0.07255927
143	0xbd056aae	-0.03257244
144	0xbcdbec7a	-0.02684616
145	0x3ce0a84d	0.027424002
146	0xbce6ac1b	-0.028158238
147	0xbd5d5f2b	-0.054045837
148	0xbdcc0457	-0.09961765
149	0xbd069252	-0.032854386
150	0xbccc14fe	-0.024912354
151	0x3cddb106	0.02706195
152	0x3c1fd1c0	0.009754598
153	0x3dac8569	0.084238835
154	0xbd6d7ea8	-0.057982117
155	0x3bacf5e2	0.005278335
156	0x3c9d405e	0.019195732
157	0xbd544993	-0.05182798
158	0xbda25840	-0.079269886
159	0xbcf27078	-0.029594645
160	0x3db732d4	0.089452416
161	0x3dd11d67	0.10210686
162	0xbd15472d	-0.03644483
163	0xbdb35a6e	-0.087574825
164	0x3de01443	0.109413646
165	0x3d62174b	0.055197995
166	0x3dbc0482	0.09180547
167	0xbd1cf3a4	-0.03831829
168	0xbdbffbcc	-0.09374198
169	0xbda4f1f5	-0.08053962
170	0xbd12002b	-0.03564469
171	0x3d29a52a	0.04141728
172	0xbd3cbd75	-0.046079118
173	0xbddd65a1	-0.108104
174	0xbdd5dac0	-0.10442114
175	0x3d77b3f3	0.060474347
176	0x3d89a15c	0.0672023
177	0x3dd9c978	0.1063413
178	0xbda160b3	-0.07879772
179	0xbdd23f9a	-0.10266037
180	0x3cc9913c	0.024605386
181	0x3cdd96c6	0.027049433
182	0xbd6655a6	-0.056234024
183	0x3da964ad	0.082711555
184	0x3d92a4c0	0.0716033
185	0x3d47bd6b	0.048764627
186	0x3d7b1f3b	0.06130908
187	0xbd19ac46	-0.03751781
188	0x3d996cbc	0.074914426
189	0xbde2a58b	-0.11066731
190	0x3c5eef41	0.013606847
191	0xbc102b48	-0.008799382
192	0xbdab7bb9	-0.083732076
193	0x3da37d76	0.07982914
194	0x3dee796f	0.11644255
195	0xbd9426d5	-0.07233969
196	0x3d8ad596	0.067790195
197	0xbd79aa2e	-0.06095331
198	0xbdc9de8c	-0.098569006
199	0xbd0cf1c1	-0.034410242
200	0xbcc13886	-0.023586523
201	0x3d8f281b	0.069900714
202	0x3d2fed88	0.042951137
203	0xbdd4162e	-0.10355793
204	0xbd99e384	-0.07514098
205	0x3dbbea2c	0.09175524
206	0x3d9b7321	0.075903185
207	0x3dbb107c	0.091340035
208	0x3d20739b	0.03917275
209	0x3dce9529	0.10087044
210	0x3ccdc94e	0.025120404
211	0xbcc35d5e	-0.023848232
212	0xbd88dd72	-0.06682862
213	0xbd6ae98f	-0.057351645
214	0xbdc269a9	-0.09492809
215	0xbda22a6a	-0.07918246
216	0xbcac6a20	-0.021046698
217	0x3c30a66f	0.010781868
218	0xbc9fb40b	-0.01949503
219	0xbda29157	-0.079378776
220	0xbcdb7e62	-0.026793662
221	0xbd1e9e09	-0.038724933
222	0x3d0a2589	0.033727203
223	0x3da99544	0.08280423
224	0xbcc76d84	-0.024344213
225	0xbd915f04	-0.07098201
226	0xbd4a23d8	-0.04935059
227	0x3c7a1629	0.015264072
228	0x3d83eeec	0.06442055
229	0xbb2bedbf	-0.0026234237
230	0x3dc5b537	0.096537046
231	0xbc637a87	-0.013884193
232	0xbd5ad503	-0.0534258
233	0x3c46b7a6	0.012128746
234	0xbd8c492b	-0.06849893
235	0x3da5c1e6	0.08093624
236	0xbdf6611e	-0.120302424
237	0xbdabd9bb	-0.08391138
238	0x3df7010a	0.12060745
239	0xbdc87ff7	-0.09790032
240	0xbcf61f6b	-0.030044278
241	0x3df13d6f	0.11779296
242	0x3d8f3496	0.06992452
243	0xbd19b53e	-0.03752636
244	0x3de1086e	0.10987936
245	0xbd934dd6	-0.071925804
246	0xbdd067ae	-0.10176025
247	0x3c1522e8	0.009102561
248	0x3db6619e	0.08905338
249	0x3dc1831f	0.094488375
250	0x3ddd5b81	0.108084686
251	0xbd82b020	-0.063812494
252	0x3d58c81e	0.05292522
253	0xbd7492e4	-0.0597104
254	0x3dcdf5e3	0.10056665
255	0x3ceef79f	0.02917081

dense_layers.2.0.bias f4 [128]
0	0xbaacf00a	-0.0013194096
1	0xba181b1a	-0.00058023783
2	0xbbc41cbb	-0.0059848703
3	0xbb7bb78f	-0.003840897
4	0xbb2907f0	-0.0025792085
5	0xbbb10373	-0.0054020225
6	0xbaf26d8a	-0.001849578
7	0xbb57aec9	-0.0032910577
8	0xbb8f6a32	-0.004376673
9	0xbb73d8d4	-0.0037208097
10	0xbb5b4638	-0.0033458602
11	0xbc12ef1c	-0.008968141
12	0xbb14c2c5	-0.00226991
13	0xbb10551d	-0.0022023388
14	0x3bb33f42	0.0054701874
15	0x3b840d4f	0.004029907
16	0xbae658db	-0.0017574088
17	0xbb45fc5a	-0.0030210228
18	0xbb32ca10	-0.0027281083
19	0x3ada4350	0.0016652141
20	0x3af64af5	0.001879065
21	0x3bcf68ed	0.006329647
22	0x3b094a00	0.0020948648
23	0xba1424b1	-0.00056512194
24	0x3a80aa6b	0.0009816414
25	0x3a65b128	0.0008762055
26	0xbbf2ffc2	-0.0074157426
27	0xbab833db	-0.001405354
28	0xbb212fe4	-0.0024595195
29	0xbb208b54	-0.0024497109
30	0xbb8f0b1e	-0.004365339
31	0xbadcdaca	-0.0016849872
32	0xba924155	-0.0011158386
33	0x3b529e27	0.0032137723
34	0xbb470756	-0.0030369363
35	0x3b9926bd	0.0046738074
36	0xbabcf507	-0.0014416286
37	0xba58ad41	-0.0008265563
38	0xbb3fb842	-0.0029254113
39	0xbb6c918b	-0.0036097493
40	0xbb422298	-0.002962267
41	0x3c59b4dd	0.01328775
42	0x3a68803e	0.0008869207
43	0x3b2cac52	0.0026347828
44	0xbb62bf63	-0.0034598939
45	0xbc093ba1	-0.008376033
46	0xbb4ca93a	-0.0031228797
47	0xbbb0dec7	-0.005397651
48	0xb988a3c1	-0.00026061948
49	0xbb247602	-0.0025094752
50	0xbaa1b997	-0.0012338635
51	0x39752d4b	0.00023381894
52	0x3b8b0c3c	0.004243402
53	0x3b974c2d	0.004617235
54	0x3bd5e375	0.006527359
55	0xbb4d66d7	-0.0031341815
56	0xbb6139a3	-0.003436663
57	0xbb29afda	-0.002589217
58	0xbacd3c05	-0.0015658146
59	0xba045786	-0.00050484424
60	0xba0ed596	-0.0005448697
61	0xbb18edb0	-0.0023335032
62	0x3baf2d27	0.0053459588
63	0xbad785fa	-0.0016443126
64	0xbada1dac	-0.0016640923
65	0xbb60179d	-0.0034193762
66	0xb9638e76	-0.00021701478
67	0xbb301f78	-0.0026874226
68	0xbb1b0396	-0.002365326
69	0xbaf35b89	-0.0018566708
70	0xbb9383c2	-0.0045017907
71	0xb9c2578c	-0.0003706779
72	0x3ae7cc4e	0.0017684789
73	0x3b3a0bca	0.0028388374
74	0xbb074773	-0.0020641952
75	0xb9dd8745	-0.00042253188
76	0x3ad2e0f0	0.0016088765
77	0x3b938d4a	0.004502927
78	0xbb050d2a	-0.0020302036
79	0xbbd6ebd5	-0.006558875
80	0x3bc3dcf4	0.0059772674
81	0xbb5c8368	-0.003364766
82	0x3a215cd6	0.0006155496
83	0xbb7a754b	-0.0038216885
84	0xbb110834	-0.0022130134
85	0xbb2e58f0	-0.0026603304
86	0xba98318e	-0.0011611448
87	0xbb22de86	-0.0024851873
88	0xba66c3a0	-0.0008802954
89	0xbb8b25a9	-0.004246433
90	0x3aa760c3	0.0012769926
91	0xbad53942	-0.0016267675
92	0xb9c65906	-0.0003783183
93	0xbad30c79	-0.001610174
94	0xba923dba	-0.0011157312
95	0xbb429a43	-0.0029693998
96	0xbb84c8a8	-0.0040522404
97	0xbab72662	-0.0013973231
98	0xbb95044a	-0.0045476304
99	0xbaa08400	-0.001224637
100	0xbb20fb1b	-0.0024563733
101	0xb9b8d1ed	-0.00035251622
102	0xbbcdc255	-0.0062792697
103	0xbba40f2d	-0.005006692
104	0xbb6f2ab0	-0.003649395
105	0x3bbd42f6	0.0057758046
106	0xbbaaaf1d	-0.0052088634
107	0x3a09d6e4	0.00052581565
108	0xbb650cc9	-0.0034950248
109	0x3b2be9c8	0.0026231874
110	0x3b837428	0.0040116496
111	0xbb34e58e	-0.0027602646
112	0xbb3544e9	-0.0027659482
113	0x37d8c468	2.5840665e-05
114	0xbbaeeda3	-0.005338387
115	0xb98be552	-0.00026683003
116	0xbac2a317	-0.001484963
117	0xbb6491c7	-0.003487693
118	0xbba529f7	-0.005040403
119	0xbac57e94	-0.001506763
120	0xbb244f5b	-0.0025071714
121	0xb93f9be1	-0.00018273249
122	0xbab6863c	-0.0013925503
123	0xbb146183	-0.002264113
124	0xbb9833e4	-0.0046448577
125	0x3b5f1ec9	0.003404545
126	0x3b1b7999	0.00237236
127	0xbaaad21f	-0.0013032592

dense_layers.3.0.weight f4 [64, 128]
0	0x3e310cfc	0.1729011
1	0xbcb5302e	-0.0221177
2	0x3e0bb2a6	0.13642368
3	0xbc2ea776	-0.010660043
4	0xbdbd4c5e	-0.092430815
5	0xbd3eec30	-0.046611965
6	0x3c1c46b9	0.009538346
7	0x39a62772	0.00031691376
8	0x3e075189	0.13214697
9	0xbe210a70	-0.15726638
10	0xbcfe7873	-0.031063294
11	0x3d4d8ed8	0.050185055
12	0xbb5fe0fa	-0.0034161196
13	0x3dc574d9	0.096414275
14	0xbe21988c	-0.15780848
15	0xbdd133de	-0.10214971
16	0x3d981b04	0.07427028
17	0x3de457ef	0.111495845
18	0xbd1943d8	-0.037418216
19	0x3d89f882	0.06736852
20	0x3e28022f	0.16407083
21	0x3e17cb57	0.14823662
22	0x3dc3e146	0.09564452
23	0xbe1bdef9	-0.15221776
24	0x3e0b7a80	0.13620949
25	0x3d1414b5	0.03615256
26	0xbd58182f	-0.05275744
27	0xbe33ef67	-0.17571793
28	0x3e1f7d06	0.15575036
29	0xbe2d4d83	-0.169241
30	0x3cb30ecb	0.02185764
31	0xbe022cf0	-0.12712455
32	0x3db30c0d	0.08742533
33	0x3dba1b08	0.09087187
34	0x3e00b01d	0.12567182
35	0xbdba5ae0	-0.09099364
36	0xbc39f1c1	-0.0113491425
37	0xbde69583	-0.11258986
38	0xbe1991c9	-0.14997019
39	0x3cc26021	0.023727478
40	0xbd1f3d73	-0.038876962
41	0xbce05878	-0.027385935
42	0x3d915293	0.07095828
43	0xbde9d5ca	-0.1141773
44	0xbc7ca545	-0.015420263
45	0x3da0f434	0.07859078
46	0x3dbf9498	0.09354514
47	0x3cbb3f6b	0.022857388
48	0xbe217e78	-0.157709
49	0xbd83738b	-0.064185224
50	0xbce72ea7	-0.028220488
51	0xbd0355be	-0.032064192
52	0xbdabe396	-0.08393018
53	0x3dc69086	0.096955344
54	0x3d8a6cd7	0.06759041
55	0x3ce3d17c	0.02780985
56	0xbe1bd116	-0.15216479
57	0x3e2fe41d	0.17176862
58	0x3b9ca4b6	0.0047803773
59	0xbe23db5f	-0.16001652
60	0x3da28d89	0.07937152
61	0x3e2af1a2	0.16693738
62	0xbe21fd72	-0.15819338
63	0xbde6ac04	-0.11263278
64	0x3e1a5c2f	0.15074228
65	0xbe31bf33	-0.17358093
66	0x3de85c89	0.11345775
67	0xbd5351b1	-0.05159158
68	0x3e0e1396	0.13874659
69	0x3dc6b854	0.097031265
70	0xbe0d339d	-0.1378922
71	0xbda9089e	-0.08253597
72	0xbe224c06	-0.15849313
73	0xbe137dae	-0.14403412
74	0x3e305306	0.17219171
75	0x3e2c718f	0.16840194
76	0xbbdee317	-0.0068019736
77	0xbdc12e11	-0.094326146
78	0xbe25736f	-0.16157316
79	0x3e040503	0.12892537
80	0x3d2acc5b	0.041698795
81	0x3dc9c458	0.09851903
82	0xbdfbfd86	-0.12304215
83	0xbc0049e5	-0.007830118
84	0x3a9face1	0.0012182259
85	0x3d8117a1	0.06303335
86	0x3e0656ee	0.13119099
87	0xbd9985f8	-0.07496256
88	0x3d9f3f6d	0.077757694
89	0x3dd22003	0.10260012
90	0xbd7d3fff	-0.06182861
91	0xbda32f11	-0.079679616
92	0xbe2edc19	-0.17076148
93	0x3dab18c8	0.08354336
94	0x3e1ca872	0.15298632
95	0x3e1b3026	0.15155086
96	0xbdc8985b	-0.097946845
97	0xbe2db770	-0.16964507
98	0xbd8026de	-0.06257413
99	0x3d9d9179	0.07693762
100	0x3d0e104b	0.034683507
101	0xbe2cdb98	-0.16880643
102	0x3d97b1de	0.07406972
103	0xbe18b5d8	-0.14913118
104	0xbdb6defc	-0.0892925
105	0xbd829f79	-0.06378073
106	0x3e15b6e1	0.14620544
107	0x3cfa73f2	0.030572865
108	0x3dedf1af	0.11618363
109	0xbdf6661c	-0.120311946
110	0x3dc095de	0.09403585
111	0xbd9c5c16	-0.076347515
112	0x3dcb7553	0.09934487
113	0x3d4828e2	0.048867114
114	0xbd69c720	-0.057074666
115	0xbe126f99	-0.14300384
116	0x3d1ada15	0.037805635
117	0xbd4a675c	-0.049414977
118	0xbd8bc2dd	-0.068242766
119	0xbe1759c5	-0.14780338
120	0x3dafc783	0.08582976
121	0xbe314a2e	-0.17313454
122	0x3db8ffb2	0.09033145
123	0xbe2eb4a9	-0.17061104
124	0x3d083236	0.03325101
125	0x3d197146	0.03746154
126	0xbe095a4d	-0.13413353
127	0x3d98c65e	0.074597105
128	0x3ded9a9e	0.116017565
129	0xbd5dbd5e	-0.054135673
130	0xbde904e6	-0.113778874
131	0x3e262b0a	0.16227356
132	0x3e1e933d	0.15485854
133	0x3a6395ab	0.0008681665
134	0xbb745bca	-0.0037286156
135	0x3dfa032a	0.12207635
136	0x3e023680	0.12716103
137	0xbe1ec0c2	-0.15503219
138	0x3e0ed323	0.1394773
139	0x3d67f04f	0.05662566
140	0x3c85a553	0.016314184
141	0xbe2977e1	-0.16549636
142	0x3df56ffd	0.11984251
143	0xbdccee02	-0.10006334
144	0x3d897af7	0.06712907
145	0xbe21dd5d	-0.158071
146	0x3e098b22	0.13431981
147	0x3ded82bd	0.11597202
148	0xbe0706ee	-0.13186237
149	0xbd4a42bd	-0.049380053
150	0x3d813499	0.0630886
151	0x3c28f015	0.010311146
152	0xbe038a99	-0.1284584
153	0x3df851e7	0.12124997
154	0xbce86a6e	-0.028371062
155	0xbdcda9a2	-0.100421205
156	0x3e059022	0.13043264
157	0x3d23a44e	0.039951615
158	0x3dc83461	0.097756155
159	0xbc929a70	-0.017895907
160	0xbe083f12	-0.1330531
161	0xbdc2ff76	-0.095213816
162	0xbcf8d10a	-0.030373115
163	0xbe1a787c	-0.15085024
164	0xbc70008a	-0.014648566
165	0xbe32ba23	-0.17453818
166	0x3cf1e09e	0.029526051
167	0x3e10d0a4	0.1414209
168	0xbdc74fec	-0.09732041
169	0x3deeaff4	0.11654654
170	0x3e2e6a34	0.17032701
171	0xbd629c99	-0.055325124
172	0x3dcf547f	0.10123538
173	0x3e10bb1e	0.1413388
174	0xbce54e61	-0.027991476
175	0xbdecae4d	-0.11556683
176	0xbe08cf83	-0.1336041
177	0xbd37f0f2	-0.044907518
178	0x3d0a31a2	0.03373874
179	0xbe2bdc8b	-0.16783349
180	0x3e1274cf	0.14302371
181	0xbdfbb75e	-0.12290834
182	0x3d747a92	0.059687205
183	0x3d85d20e	0.065342054
184	0xbe285dc6	-0.16442022
185	0xb9392225	-0.00017655695
186	0x3e082ed2	0.1329911
187	0xbd3671b6	-0.044542037
188	0x3e28bfbd	0.16479392
189	0xbe2a7cba	-0.16649142
190	0xbe0f32dc	-0.13984245
191	0x3e0f7ec8	0.14013207
192	0x3d9759a7	0.07390147
193	0xbd052286	-0.032503627
194	0xbdfd6e13	-0.123745106
195	0x3e033c80	0.12816048
196	0xbe0c6262	-0.13709405
197	0xbe147d71	-0.14500977
198	0xbe24cd0d	-0.16093846
199	0x3b3f49bc	0.0029188236
200	0x3d7aae8d	0.06120162
201	0x3d896557	0.06708782
202	0xbc646502	-0.013940098
203	0xbdc0d843	-0.09416249
204	0x3dac3fdd	0.084106185
205	0xbd640e15	-0.055677492
206	0xbd905d4b	-0.07049044
207	0x3e2d52f4	0.16926175
208	0x3e1b6e3a	0.15178767
209	0xbe0386fd	-0.12844463
210	0x3d310758	0.043219894
211	0x3d1b20e9	0.037873182
212	0x3c2ef555	0.010678609
213	0xbe04c493	-0.12965612
214	0xbbd83bab	-0.00659891
215	0x3e24bd2c	0.16087788
216	0x3e1766cb	0.14785306
217	0x3d75ec36	0.06003972
218	0xbd43c3ca	-0.04779414
219	0x3dc643bc	0.09680888
220	0xbdc27f34	-0.09496918
221	0xbdbb544e	-0.09146939
222	0x3ca0cbcc	0.019628428
223	0x3dc2865d	0.09498284
224	0x3e14d441	0.14534093
225	0xbe2992ad	-0.16559859
226	0x3c86c353	0.01645056
227	0x3aefd0ed	0.0018296518
228	0x3e02e4ae	0.12782547
229	0x3df474fc	0.119363755
230	0xbd95fcd6	-0.07323615
231	0x3c963297	0.01833467
232	0x3ddc8c6a	0.10768969
233	0xbd506d61	-0.05088556
234	0x3bbb427b	0.005714712
235	0x3e0b7efa	0.13622656
236	0xbde13bc7	-0.1099773
237	0x3dfc97ca	0.12333639
238	0x3dc5463e	0.09632538
239	0x3c7ab856	0.015302738
240	0x3d8941c1	0.06701995
241	0xbca029fc	-0.01955127
242	0xbd27abf6	-0.04093548
243	0xbdfbffc6	-0.12304644
244	0x3df1e941	0.11812068
245	0x3c96ce80	0.018409014
246	0x3d1c6a94	0.03818758
247	0x3e1873a5	0.14887865
248	0x3bfe3ee8	0.007758964
249	0xbd4c4879	-0.049873803
250	0x3dee2979	0.11629004
251	0xbc999795	-0.018749038
252	0x3d7e328d	0.062059928
253	0x3e0f16f0	0.13973594
254	0xbdc9e066	-0.09857254
255	0x3dfec758	0.124403656

dense_layers.3.0.bias f4 [64]
0	0xba93baa4	-0.0011270833
1	0xbafabac5	-0.0019129148
2	0xbc286285	-0.010277395
3	0xbc76a662	-0.015054317
4	0xbb90e65d	-0.0044219927
5	0xbc6bd28d	-0.014393461
6	0xbb0ba0c8	-0.002130555
7	0xbc15409a	-0.0091096405
8	0xbc2e1800	-0.010625839
9	0x3c1d8bdc	0.009615865
10	0xbbc49a6f	-0.005999855
11	0xbace5531	-0.0015741942
12	0xbc247955	-0.010038693
13	0x3c0185f0	0.007905468
14	0xbc0a832a	-0.0084541235
15	0xbbe3e04a	-0.0069542276
16	0xbc2e5ea2	-0.010642679
17	0xbbfcbd36	-0.0077129854
18	0xbbe2f7b5	-0.0069265016
19	0x3c110461	0.008851142
20	0xbb0a05a9	-0.0021060503
21	0xbbbf2bae	-0.0058340644
22	0xbbb785c3	-0.0056006624
23	0xbb5cc5f2	-0.003368732
24	0xbc2bac32	-0.010478066
25	0xbc534690	-0.012895241
26	0xbb20b8f5	-0.0024524305
27	0xbb434004	-0.0029792795
28	0xbbe69250	-0.007036485
29	0xbc599023	-0.013278994
30	0xbc0ed9de	-0.008718936
31	0xb8722cc5	-5.773899e-05
32	0xbc3c6d87	-0.011500723
33	0xbb1819f2	-0.0023208824
34	0xbc5ebc71	-0.013594733
35	0x3bcf2ee1	0.006322727
36	0xbc2e8473	-0.010651696
37	0xbc4b81b7	-0.012421063
38	0x3af26a73	0.0018494859
39	0x3c826501	0.015917303
40	0xbb76843d	-0.0037615441
41	0xbbec6400	-0.0072140694
42	0xbc46a641	-0.012124599
43	0xbbabbcec	-0.005241027
44	0xbbee8976	-0.00727957
45	0x39afa517	0.00033501603
46	0xbba3cad1	-0.004998543
47	0x3bcf84f5	0.0063329884
48	0x3c72ebe9	0.014826753
49	0xbc279396	-0.010228058
50	0xbad9c2fa	-0.0016613894
51	0xbb933fdb	-0.004493696
52	0x3b2fcdac	0.002682547
53	0xbc2f3685	-0.010694151
54	0xbb031fac	-0.0020007892
55	0xbc23ce66	-0.00999794
56	0xbb8b4bfc	-0.0042510014
57	0xb91a8e23	-0.00014739535
58	0xbbb4d813	-0.005518922
59	0xba536b6f	-0.000806502
60	0xbb3a9599	-0.0028470515
61	0xbb98d934	-0.0046645645
62	0x3c17b758	0.009260021
63	0xbc6765e8	-0.014123417
